Started at: Thu Nov  6 01:32:44 PM SAST 2025
Latent embeddings: (160000, 200)
Decoder loaded
Model: "decoder"
┏━━━━━━━━━━━━━━━━━━━━━━━━━━━━━━━━━┳━━━━━━━━━━━━━━━━━━━━━━━━┳━━━━━━━━━━━━━━━┓
┃ Layer (type)                    ┃ Output Shape           ┃       Param # ┃
┡━━━━━━━━━━━━━━━━━━━━━━━━━━━━━━━━━╇━━━━━━━━━━━━━━━━━━━━━━━━╇━━━━━━━━━━━━━━━┩
│ input_layer_1 (InputLayer)      │ (None, 200)            │             0 │
├─────────────────────────────────┼────────────────────────┼───────────────┤
│ dense_1 (Dense)                 │ (None, 1080064)        │   217,092,864 │
├─────────────────────────────────┼────────────────────────┼───────────────┤
│ reshape (Reshape)               │ (None, 8438, 128)      │             0 │
├─────────────────────────────────┼────────────────────────┼───────────────┤
│ conv1d_transpose                │ (None, 8438, 128)      │        49,280 │
│ (Conv1DTranspose)               │                        │               │
├─────────────────────────────────┼────────────────────────┼───────────────┤
│ up_sampling1d (UpSampling1D)    │ (None, 16876, 128)     │             0 │
├─────────────────────────────────┼────────────────────────┼───────────────┤
│ conv1d_transpose_1              │ (None, 16876, 64)      │        24,640 │
│ (Conv1DTranspose)               │                        │               │
├─────────────────────────────────┼────────────────────────┼───────────────┤
│ up_sampling1d_1 (UpSampling1D)  │ (None, 33752, 64)      │             0 │
├─────────────────────────────────┼────────────────────────┼───────────────┤
│ conv1d_transpose_2              │ (None, 33752, 32)      │         6,176 │
│ (Conv1DTranspose)               │                        │               │
├─────────────────────────────────┼────────────────────────┼───────────────┤
│ up_sampling1d_2 (UpSampling1D)  │ (None, 67504, 32)      │             0 │
├─────────────────────────────────┼────────────────────────┼───────────────┤
│ conv1d_transpose_3              │ (None, 67504, 1)       │            97 │
│ (Conv1DTranspose)               │                        │               │
├─────────────────────────────────┼────────────────────────┼───────────────┤
│ cropping1d (Cropping1D)         │ (None, 67499, 1)       │             0 │
└─────────────────────────────────┴────────────────────────┴───────────────┘
 Total params: 217,173,057 (828.45 MB)
 Trainable params: 217,173,057 (828.45 MB)
 Non-trainable params: 0 (0.00 B)
Decoding data in batches...
Processed 100/160000 samplesProcessed 200/160000 samplesProcessed 300/160000 samplesProcessed 400/160000 samplesProcessed 500/160000 samplesProcessed 600/160000 samplesPr
…
